…
[19:56:37.883] Dataset summary:
                     size : 4,600,955
       kmer context bases : (4, 4)
            chunk context : (200, 200)
           reverse signal : False
 chunk extract base start : False
     chunk extract offset : 0
               pa scaling : None
          sig map refiner : No Remora signal refine/map settings loaded
        batches preloaded : False
      is modbase dataset? : True
                mod bases : ['U']
           mod long names : ['T']
                   motifs : [('T', 0)]

[19:56:37.884] Loading model
[19:56:37.886] Model structure:
network(
  (sig_conv1): Conv1d(1, 4, kernel_size=(5,), stride=(1,))
  (sig_bn1): BatchNorm1d(4, eps=1e-05, momentum=0.1, affine=True, bias=True, track_running_stats=True)
  (sig_conv2): Conv1d(4, 16, kernel_size=(5,), stride=(1,))
  (sig_bn2): BatchNorm1d(16, eps=1e-05, momentum=0.1, affine=True, bias=True, track_running_stats=True)
  (sig_conv3): Conv1d(16, 64, kernel_size=(9,), stride=(3,))
  (sig_bn3): BatchNorm1d(64, eps=1e-05, momentum=0.1, affine=True, bias=True, track_running_stats=True)
  (seq_conv1): Conv1d(36, 16, kernel_size=(5,), stride=(1,))
  (seq_bn1): BatchNorm1d(16, eps=1e-05, momentum=0.1, affine=True, bias=True, track_running_stats=True)
  (seq_conv2): Conv1d(16, 64, kernel_size=(13,), stride=(3,))
  (seq_bn2): BatchNorm1d(64, eps=1e-05, momentum=0.1, affine=True, bias=True, track_running_stats=True)
  (merge_conv1): Conv1d(128, 64, kernel_size=(5,), stride=(1,))
  (merge_bn): BatchNorm1d(64, eps=1e-05, momentum=0.1, affine=True, bias=True, track_running_stats=True)
  (lstm1): LSTM(64, 64)
  (lstm2): LSTM(64, 64)
  (fc): Linear(in_features=64, out_features=2, bias=True)
  (dropout): Dropout(p=0.3, inplace=False)
)
[19:56:37.886] Gradients will be clipped (by value) at 0.00 MADs above the median of the last 1000 gradient maximums.
[19:56:38.396] Params (k) 134.08 | MACs (M) 36395.12
[19:56:38.396] Preparing training settings
[19:56:38.419] Training optimizer and scheduler settings: TrainOpts(epochs=20, early_stopping=10, optimizer_str='AdamW', opt_kwargs=(('weight_decay', 0.0001, 'float'),), learning_rate=0.001, lr_scheduler_str='CosineAnnealingLR', lr_scheduler_kwargs=(('T_max', 100, 'int'), ('eta_min', 1e-06, 'float')), lr_cool_down_epochs=5, lr_cool_down_lr=1e-07)
…
